last_brain.pth (torch_old, 12903 bytes, 18 tensors)

fc1.weight f4 [30, 5]
000000 24 11 d1 3d 7d 55 f9 bd fc 3d f1 3e 80 0f 36 be
       0.102083474 -0.12174509 0.47117603 -0.1777935
000010 1c 9e a8 3e 56 a8 82 be cf 64 08 be 59 c2 c4 3e
       0.32933128 -0.25519055 -0.13319705 0.38429525
000020 a9 db 18 bd e4 89 c0 3e 1c 3b 59 c0 6c 52 c5 c0
       -0.03731886 0.37605202 -3.3942327 -6.1663113
000030 29 a7 c9 c0 06 eb 15 3d 34 e6 7e 3c 50 66 7c 3e
       -6.3016553 0.03660109 0.015557814 0.24648404
000040 bd 40 f6 bd 64 05 0e 3e 12 22 f1 3e 45 7d 26 bf
       -0.120240666 0.13869244 0.47096306 -0.65034896
000050 0a 36 8b 3f 1e 1b b1 3e 08 8c 07 bf 9f 5d 9f be
       1.0875866 0.34591 -0.52948046 -0.31126115
000060 61 60 a0 be 50 12 b7 c0 a2 de 0c be 3a 03 00 bf
       -0.3132353 -5.7209854 -0.13756803 -0.50004923
000070 82 08 e6 be 7f bb 3d be 43 91 1b 3e b6 69 74 3f
       -0.44928366 -0.18528555 0.15192132 0.954738
000080 20 ff b1 bd 7f 20 e6 3e cb 27 ef be 10 c0 23 bd
       -0.08691239 0.44946668 -0.46710047 -0.039978087
000090 48 73 0b bd a8 b8 29 3d 03 60 9d be 41 e8 8b be
       -0.034045488 0.041435868 -0.30737314 -0.27325633
0000a0 f0 d9 71 3e f6 22 64 be eb e7 06 3f b8 7b 73 be
       0.23618293 -0.22278962 0.5269763 -0.23777664
0000b0 d2 90 21 3f fc 58 21 3f b4 9f 06 bf 7c c8 f9 be
       0.63111603 0.63026404 -0.5258744 -0.4878577
0000c0 9a 44 21 bf b1 23 26 bb d0 1f aa bd 8c a7 0b 3e
       -0.629953 -0.0025350864 -0.08306849 0.13638133
0000d0 90 cd b7 3d 80 e8 9a bd 98 65 15 3e 7b 5e 01 3f
       0.08974755 -0.07563877 0.14589536 0.5053479
0000e0 e9 18 9f 3e f7 8d 0c 3f 43 fb ff be ca ac 89 3d
       0.31073692 0.5490412 -0.49996385 0.0672241
0000f0 aa 28 87 be f0 fe 64 3d 8a a4 16 be f8 b8 a3 be
       -0.26398212 0.05590719 -0.14711204 -0.31977057
000100 33 ba ca be 4c ab 50 3e 6d b0 03 bf 66 bd ba 3d
       -0.39595184 0.20377845 -0.5144108 0.09118156
000110 f9 ac 9f be 05 9b c4 3e 52 f2 ce 3d 63 f0 0d bf
       -0.31186655 0.3839952 0.10104813 -0.55444926
000120 ac 77 e7 3e d0 b7 b8 be e9 e0 1c be 89 ff 1b 3e
       0.4520849 -0.36077738 -0.15320171 0.15234198
000130 75 1a a7 be de 8d 26 3f bc ac e5 3e 87 a1 82 3d
       -0.32637373 0.6506022 0.44858348 0.06378465
000140 7d ef 7c bd 08 c2 85 3f 8b 52 49 3e e1 2d 6a be
       -0.06175183 1.0449839 0.19660394 -0.22869064
000150 92 44 fd 3e b3 e4 c4 bd ba cc 47 3f 3e 8b 45 3f
       0.49466377 -0.096139334 0.7804676 0.7716559
000160 b0 1e f6 be 7c c8 e9 3e 84 25 b0 3e b0 7f ab 3e
       -0.48070288 0.4566077 0.34403622 0.33495855
000170 b0 06 27 bd a3 96 53 3f e1 0a 19 bf b8 60 ed be
       -0.040777862 0.8265173 -0.59782225 -0.46362853
000180 22 24 fe 3e 3f f9 26 3f 84 fb 06 3e c4 80 77 be
       0.49636942 0.6522407 0.13181883 -0.24170214
000190 02 09 99 be 26 37 60 3f 18 2c c4 be 87 3c 0d bf
       -0.29889685 0.8758415 -0.3831489 -0.5517048
0001a0 d7 e5 e9 3e f3 9d 69 bf 9e 49 53 bd 98 b2 33 3f
       0.45683166 -0.91256636 -0.05158388 0.7019439
0001b0 1f ca c1 3e 25 28 98 be 29 2e 19 3f e2 2b 8f 3f
       0.3784952 -0.29718128 0.5983606 1.1185267
0001c0 10 de b3 bd 99 c0 31 be a1 ab 24 3f 4a cc 28 3d
       -0.087825894 -0.17358626 0.64324385 0.04121045
0001d0 0e 23 f1 3d 1c 04 40 be 66 24 13 bf ee 9f ca 3e
       0.11774264 -0.18751568 -0.57477415 0.39575142
0001e0 10 1e 27 bf ca 76 99 3f d5 04 96 bd ae 4a 0b 3e
       -0.65280247 1.1989377 -0.073251404 0.13602707
0001f0 70 b4 95 3d d9 32 94 bf 5c 50 58 be 40 a0 ab bb
       0.07309806 -1.1578017 -0.21124405 -0.005237609
000200 d1 f2 6c 3e 3e 26 bc be f4 f9 0a be 9b c0 e8 3e
       0.23139502 -0.36747926 -0.13571912 0.45459446
000210 7e 2d be c0 14 90 72 3e 10 13 d3 3c 4c 67 c6 3e
       -5.9430532 0.23687774 0.025765926 0.38750684
000220 09 41 f8 3e 49 25 30 be 77 d6 2a bf 06 75 c6 3e
       0.48487118 -0.17201723 -0.667335 0.38761157
000230 a4 bf e8 3d 63 fa 3a 3d 3e 4c b6 3e e8 a4 8e be
       0.113646775 0.045648944 0.35605043 -0.27860188
000240 d1 6d ea 3d ef 56 eb be 77 97 42 3f fa 61 18 3f
       0.11446727 -0.45964763 0.76012367 0.595245
000250 46 cc a0 3e 7c fd bb 3e
       0.31405848 0.3671683

fc1.bias f4 [30]
000000 fe c2 f7 3d f1 8a 21 3f 1b bf 1c 3d a0 0f b7 be
       0.12097739 0.6310263 0.03826819 -0.35754108
000010 ec 9d 0b 3b d3 cb 27 3f fb 4f f2 3e d1 1a e1 be
       0.0021303846 0.65545386 0.47326645 -0.43965772
000020 1f fb 29 bf bc 32 03 3f 5e d6 cd be bd a4 ba 3e
       -0.66398805 0.5124929 -0.40202612 0.3645381
000030 d5 b3 97 be 62 4f fa 3e 66 18 3c 3f 24 82 10 3f
       -0.29629388 0.4888869 0.7347473 0.5644858
000040 d8 93 ba 3e 8e 2b 33 3b 88 06 aa be b6 2d c3 3e
       0.3644092 0.0027339193 -0.33208108 0.38120812
000050 d7 c9 cd 3e 05 6e b5 be ce 22 3b 3e 8d 6a 20 3f
       0.40193054 -0.354355 0.18274996 0.62662584
000060 c7 ae 81 3e 67 ce ba be f8 91 7c 3d f9 2a 00 3e
       0.25328657 -0.36485597 0.061662644 0.12516393
000070 08 5f 85 3e bd b4 07 bf
       0.26049066 -0.5301016

fc2.weight f4 [20, 30]
000000 77 fa 95 3e 0a a9 01 3f 6f 0e 85 bf 59 8d 86 3e
       0.29292652 0.5064856 -1.039503 0.26279715
000010 bb f7 32 bf 0c a5 05 bf b0 74 d5 3d 24 b3 ad 3d
       -0.69909257 -0.52204967 0.10422647 0.08481434
000020 a8 75 28 bf c2 82 d2 3e c4 b5 3a 3e d7 58 39 3c
       -0.6580453 0.41115385 0.182334 0.011312685
000030 2e 1b 28 3e ad df 00 3f 26 da 90 3e 74 c3 99 3e
       0.16416618 0.503413 0.28291434 0.3003193
000040 6a ee 89 3e b5 ae ae 3e 63 8c e1 3d 30 8d b3 3e
       0.26939708 0.34117666 0.11013105 0.35068655
000050 2e b5 fa 3d 3c ea f6 be 4a f5 74 3e 46 9e 1a 3e
       0.122415885 -0.48225582 0.23921695 0.15099439
000060 3a 1c 9b 3e b0 0c 26 bd ec ed 39 bf fd 57 88 3d
       0.30294973 -0.040539443 -0.72628665 0.066574074
000070 f8 a0 90 3e ae 4e 32 bf c1 7e 0d 3d bf be 28 bd
       0.2824781 -0.69651306 0.03454471 -0.041197535
000080 e8 7d 61 bd 63 0c 9e bd 27 b6 c6 bd 43 fd f6 3d
       -0.055051714 -0.07717206 -0.097027116 0.120600246
000090 6a c7 38 bb c1 9a d7 bd d8 81 83 3d 66 9f d0 bd
       -0.0028195032 -0.10527564 0.0642125 -0.10186653
0000a0 24 3c 96 bd c1 73 de 3d a4 28 7b 3d f4 4f 37 be
       -0.0733569 0.10861922 0.061318055 -0.17901593
0000b0 80 77 2a bd 7a c3 d4 3d ec c8 10 be 64 23 5d bd
       -0.04161787 0.10388847 -0.14139146 -0.05398883
0000c0 2a 18 b8 3d dd 38 42 bd 8c ae 8f bd cc cf 0f be
       0.08988984 -0.04741751 -0.07015714 -0.14044112
0000d0 be 88 3a be bc 79 4c be 35 ed 9e bc 2f fa ef 3c
       -0.18216226 -0.19968313 -0.019400219 0.029294102
0000e0 04 b9 33 3c b7 81 e0 bd 88 e9 1e be 25 53 80 bd
       0.010969404 -0.10962241 -0.15518773 -0.062658586
0000f0 32 4d ef bc 55 a1 fe bd 03 4b e5 3f 6e b1 65 be
       -0.029211614 -0.124331154 1.7913517 -0.22430965
000100 99 71 aa 3e 07 b3 af 3f 44 03 d9 3d b8 7b 03 3e
       0.33289793 1.372651 0.10596326 0.12840164
000110 98 b2 82 bd f9 d6 b8 be 58 88 a8 bd bc 92 90 3e
       -0.0638172 -0.3610151 -0.082291305 0.2823695
000120 98 b2 3c bd 80 e8 1a be cc 13 b4 3e 1e 44 d0 3e
       -0.046068758 -0.15127754 0.35171354 0.4067697
000130 18 42 f1 bd a2 1f 7f be e1 fe 2a bf 27 d1 94 3e
       -0.117801845 -0.2491441 -0.66795164 0.2906582
000140 c8 5e d9 be d1 82 b1 3e 95 4a f2 be 40 8b 0c 3e
       -0.42455125 0.34670117 -0.47322527 0.13724995
000150 75 01 26 3e 88 1d eb 3e 5a b1 4d 3f 21 63 32 bf
       0.16211493 0.45920968 0.8034874 -0.6968251
000160 2c 5e 8b bc 43 b6 56 3f 69 e0 35 3e 45 9e f7 bc
       -0.017012678 0.8387186 0.17761387 -0.030226836
000170 a1 6a 01 c0 98 93 f1 3c d5 b8 06 bf b8 32 8b be
       -2.022133 0.029489323 -0.5262578 -0.27187133
000180 77 76 1d 3e 28 5b 30 3d 70 d9 b5 3e 38 9b 40 3e
       0.15377222 0.043055683 0.35517454 0.18809211
000190 6c 20 d6 3d 53 1e 40 bd c8 bc b7 bd e5 80 ba bc
       0.10455403 -0.04690392 -0.08971554 -0.02276654
0001a0 2d d7 1c 3d 55 4b 4f 3d 9a 8d 25 3d 44 92 14 3d
       0.038291145 0.05060895 0.040418245 0.036272302
0001b0 a5 43 0f 3e 71 d1 40 3e 5e d0 d4 3e 76 b6 21 bf
       0.13990648 0.18829896 0.41565222 -0.6316904
0001c0 44 70 63 3e 4c 01 82 3e 9c 2a c4 3e 47 14 64 3e
       0.22210795 0.25391614 0.38313758 0.2227336
0001d0 de 35 bc be 56 13 14 3e 4d f0 00 3e 85 ed 62 bf
       -0.36759847 0.14460501 0.12591667 -0.88643676
0001e0 35 79 b2 3d 06 38 92 3c 89 8b f9 3f c4 1d 58 3d
       0.08714525 0.01784898 1.9495708 0.05276276
0001f0 b1 b4 36 3f a8 d8 3b 3f 22 c0 7c be e4 c4 72 bd
       0.71369463 0.73377466 -0.24682668 -0.0592698
000200 b5 f5 36 3f e5 21 2e 3c e8 0c 0b 3e 93 6a 42 bd
       0.7146867 0.010628198 0.13579142 -0.04746492
000210 f8 b9 d2 3c ac 0f 4b be 7b 79 2a bc 3b a7 b3 3d
       0.025723442 -0.19830197 -0.01040494 0.08772131
000220 57 5e 4b 3d de 92 12 bd f0 10 f1 3d 0b 35 80 be
       0.049650516 -0.035784595 0.11770809 -0.2504047
000230 75 9e 62 3b 75 2f 6c 3f 63 d2 b0 bd 06 c6 90 3e
       0.003457931 0.92259914 -0.08633878 0.2827608
000240 4b 3f 22 be bd b4 86 be 3f 0d 8b 3f a1 59 00 3e
       -0.15844457 -0.26309767 1.0863417 0.1253419
000250 f0 84 74 3c ff 5d 8b 3f a1 8c c0 be b6 b5 b5 3d
       0.014924273 1.088806 -0.3760729 0.08872549
000260 b5 df 5c 3e cc d6 91 3d 46 79 17 bf e1 da ef be
       0.21569712 0.071210474 -0.59169424 -0.4684668
000270 41 e8 cb 3c 64 42 3d 3d 4d 32 81 3e a4 33 01 bf
       0.02489102 0.046205893 0.2523369 -0.5046942
000280 fa eb f7 bd 9c d6 dc bd e2 8a 22 3e 3d 2f 08 bf
       -0.12105556 -0.10783121 0.15873292 -0.5319708
000290 4e 68 53 be a5 41 52 3d 2a 95 56 3e 7f a5 3e 3e
       -0.20645258 0.051332135 0.20955339 0.18617819
0002a0 31 4e 7d 3d e4 94 07 be 2b ed 8a 3e 62 f3 b7 3e
       0.061842147 -0.13240391 0.2713407 0.35927874
0002b0 7a c5 c5 bd ac 3d 0e 3e c1 b7 5f 3e 50 8e d1 3e
       -0.09656806 0.13890713 0.2184744 0.40928888
0002c0 75 27 55 3e 55 5b a5 3d 6c 11 d8 bd 02 78 03 3f
       0.20815833 0.08074061 -0.10550198 0.5135499
0002d0 3b 27 b7 3d ae 81 c2 bd 3d b2 d0 bf 75 b5 c4 3e
       0.089430295 -0.09497391 -1.6304394 0.3841969
0002e0 bb 7b 80 3c 07 99 45 3e 9d e9 92 3e c8 99 25 be
       0.015684 0.19296657 0.28693858 -0.16171944
0002f0 70 7b 00 3f 2a 72 02 be 54 7a 7b 3d 9e 69 d2 bc
       0.5018835 -0.12738863 0.061395958 -0.025685128
000300 25 4b b1 bd 2f d9 1e be 84 b6 27 3d 2d 00 e6 bd
       -0.08656911 -0.15512536 0.040945545 -0.11230502
000310 9b fd 84 3e 15 64 af be a0 b6 bb 3e 1f b8 05 bd
       0.25974736 -0.34256044 0.3666277 -0.032646295
000320 e2 3f cc 3e e7 14 82 bd 90 b0 9e 3d 18 d7 cd bd
       0.3989249 -0.06351643 0.077485204 -0.100507915
000330 42 4b 3e 3f f5 e1 a5 3c 4b 24 96 3f 58 10 73 3e
       0.74333584 0.020249346 1.1729826 0.23736703
000340 b1 6c 54 3e dd a5 16 3e 32 06 a4 3d 56 b5 dc 3d
       0.20744587 0.1471171 0.08008994 0.107767746
000350 d9 34 ef bf 7b ff 56 3e 88 1d a8 3d 1c 32 8d bd
       -1.8688003 0.20995896 0.08208758 -0.06894323
000360 86 43 cb 3e f4 61 1c 3e 0e 33 85 3e 79 a8 b8 bf
       0.39699954 0.15271741 0.26015514 -1.4426414
000370 12 a0 0f 3e ca 31 25 bf 40 69 6e bc 9b e1 b9 3d
       0.14025906 -0.645291 -0.014551461 0.09076234
000380 6e 88 23 3e 72 ab 61 3e 4d 7e 1e bf a8 f1 80 be
       0.15970013 0.22038057 -0.6191147 -0.2518437
000390 e7 e1 04 3e ae 45 c8 3e 2c 98 6c bf ef 0d 0f 3f
       0.129768 0.3911566 -0.92419696 0.55880636
0003a0 fd 75 3e 3d f6 78 03 c0 45 5b bc 3e 67 32 04 bf
       0.04649924 -2.0542579 0.36788383 -0.5163941
0003b0 e0 cf 16 3f 32 9f 40 3d 07 6e bd be ff 60 27 3f
       0.5891094 0.04702682 -0.36998007 0.6538238
0003c0 d8 4b e7 3e 20 34 97 3d d1 a2 af 3d 1c c0 b1 bd
       0.45175052 0.07382989 0.08575977 -0.0867922
0003d0 52 95 14 bf 11 45 7a bf 73 0e de be b0 59 a5 bc
       -0.58040345 -0.97761637 -0.433704 -0.020184368
0003e0 fc b3 d2 bd fa d9 5b bf af 44 b1 bd 3a bf 02 3e
       -0.102882355 -0.8587948 -0.086556785 0.1276826
0003f0 96 a1 17 3e f2 5b 64 3d 67 66 38 3e 68 22 2f 3e
       0.14807734 0.05575175 0.18007813 0.17102969

fc2.bias f4 [20]
000000 b3 7f b3 3e 65 18 3b be 39 64 55 3e b9 1d 82 3e
       0.35058364 -0.18271025 0.20839013 0.25413302
000010 c9 9b 05 3d c2 c8 35 3c d0 33 bf bc 63 d5 84 3e
       0.03261927 0.011095228 -0.023340136 0.2594405
000020 c1 c7 7e be 18 43 ef bd 90 7c ae 3e 36 f9 23 3e
       -0.24880888 -0.11682719 0.3407941 0.16013035
000030 8e 68 9b 3d 9b ab 69 bd 09 e9 f9 3e a0 0d c7 ba
       0.075883016 -0.05704842 0.48810604 -0.0015186556
000040 7e ce 54 be 38 57 9a bd df 99 09 3e 75 34 c6 3e
       -0.20781896 -0.07536167 0.13437603 0.38711897

fc3.weight f4 [3, 20]
000000 25 09 87 be ab 33 3a 3e a5 7b 07 3f bd de dd be
       -0.26374164 0.18183772 0.5292304 -0.43333998
000010 d3 fa 7e 3f 2c 35 08 3e b0 ae 59 be e7 a7 b5 be
       0.9960148 0.13301533 -0.21258044 -0.35479662
000020 47 ff 8b 3f f8 ad b1 3d ed 0c 24 bf 15 f1 be be
       1.093728 0.0867576 -0.64082223 -0.37293306
000030 4f 82 43 3f b1 07 a9 bf 1f a7 cd be c0 65 0e 3e
       0.7637071 -1.3205472 -0.40166566 0.13906002
000040 26 a1 9b 3e 47 60 5d 3f 63 57 2b be 5b 8b 72 be
       0.30396384 0.8647503 -0.16732554 -0.23685972
000050 36 d9 8a be d8 2f d0 bc 3d 66 86 3f d5 53 bd be
       -0.27118844 -0.025413439 1.0499951 -0.3697802
000060 9d 51 0a 3f b0 ff 1f 3f ba fc 24 bf b7 4c 90 bf
       0.5403078 0.62499523 -0.6444813 -1.1273412
000070 4d 4c 9b be 10 26 e2 3d c5 7b c2 be 3f 47 9f be
       -0.3033165 0.11042416 -0.37985054 -0.31109044
000080 03 8a 1e 40 00 f2 d7 bd bc f7 b0 be 34 ce 08 3e
       2.4771736 -0.10544205 -0.34564006 0.1335991
000090 b5 9b 57 3e 21 bb eb 3e a1 2a bb 3d 4b d6 d6 be
       0.21055491 0.46041206 0.0913899 -0.41960368
0000a0 a2 7d 01 bf fc 40 d9 bb b2 ce a4 3f 88 c8 25 bd
       -0.50582325 -0.006630061 1.2875578 -0.040474445
0000b0 fc 91 1e 3f 1b c1 f3 3e ff 01 88 3e 0c ff 8e bf
       0.61941504 0.47608265 0.26564023 -1.1171584
0000c0 04 90 55 3f 7d 0d 1a 3e 4b 85 f8 be b3 5b 66 be
       0.83422875 0.15044208 -0.48539194 -0.22495918
0000d0 d4 35 68 3d 06 93 b2 bf c4 d4 f4 be 29 95 e7 bb
       0.05669196 -1.3951118 -0.47818577 -0.007067342
0000e0 06 aa ed 3e 86 0b 42 3f 3e 2b c4 3d 5b c2 05 bf
       0.4641878 0.75798833 0.0957856 -0.5224969

fc3.bias f4 [3]
000000 e8 f5 0e bf ad 9f e5 bd 49 4f 82 bd
       -0.55843973 -0.11212096 -0.06362779

exp_avg f4 [30, 5]
000000 4d 45 3c 3a d7 9d 0f ba e0 18 13 3a 01 5b 8d b9
       0.00071819575 -0.0005478537 0.00056113116 -0.0002696142
000010 01 5b 8d 39 2e 48 7d ba 0b 62 f6 ba b2 1b 59 bb
       0.0002696142 -0.00096619397 -0.001879753 -0.003312808
000020 f6 40 b4 bb f6 40 b4 3b c8 0b 2b 38 d3 5d 38 37
       -0.005500908 0.005500908 4.078055e-05 1.09891e-05
000030 64 f2 aa 38 a4 9d 63 3d a4 9d 63 bd 37 93 01 bb
       8.1513805e-05 0.05557026 -0.05557026 -0.0019771585
000040 4f f8 80 bb 97 ca 1f bb 38 6f ec bb 38 6f ec 3b
       -0.0039358507 -0.0024382228 -0.0072154067 0.0072154067
000050 06 3d 3b 3b 22 58 12 3b c7 69 af 3b 9a 86 23 3c
       0.0028570308 0.0022330363 0.005353186 0.009980822
000060 9a 86 23 bc 95 50 80 38 c9 86 ac 3b c6 65 e1 ba
       -0.009980822 6.118525e-05 0.005265091 -0.0017196469
000070 26 83 85 3c 26 83 85 bc ba 7e 38 bb f8 c8 69 bb
       0.016297888 -0.016297888 -0.0028151707 -0.0035672765
000080 f4 ee 24 bb 1c f5 2b bc 1c f5 2b 3c 00 00 00 00
       -0.0025166841 -0.01049545 0.01049545 0.0
000090 00 00 00 00 00 00 00 00 00 00 00 00 00 00 00 00
       0.0 0.0 0.0 0.0
0000a0 5d e6 25 3c 15 a6 78 3b d9 ed 2c 3c 9c 01 b6 bb
       0.010125724 0.003794079 0.010554754 -0.005554391
0000b0 9c 01 b6 3b 21 ea 6f 3a a4 5d 5b 3b e7 ac e8 ba
       0.005554391 0.00091520144 0.0033472562 -0.0017751724
0000c0 43 aa 95 3b 43 aa 95 bb 00 00 00 00 00 00 00 00
       0.004567416 -0.004567416 0.0 0.0
0000d0 00 00 00 00 00 00 00 00 00 00 00 00 81 77 f7 3a
       0.0 0.0 0.0 0.001888022
0000e0 b3 f0 97 3b 56 be ff 3a 16 d1 b3 3b 16 d1 b3 bb
       0.004636848 0.0019511681 0.0054875715 -0.0054875715
0000f0 00 00 00 00 00 00 00 00 00 00 00 00 00 00 00 00
       0.0 0.0 0.0 0.0
000100 00 00 00 00 36 91 52 3a f1 56 0d 3b 7c 43 7e ba
       0.0 0.00080325024 0.0021566714 -0.0009699387
000110 74 52 bf ba 74 52 bf 3a 90 a8 14 38 35 a3 03 3a
       -0.0014596717 0.0014596717 3.5442936e-05 0.0005021573
000120 67 70 e8 ba 46 66 f3 39 46 66 f3 b9 38 4d b8 b8
       -0.0017733694 0.0004642477 -0.0004642477 -8.788187e-05
000130 d9 d9 15 3a 1a 11 e6 ba 14 c1 a1 ba 14 c1 a1 3a
       0.0005716361 -0.0017552704 -0.0012340867 0.0012340867
000140 be dd 0a 3b 25 2a 87 3b 92 0e 65 3b 3a bb 0b bb
       0.0021189298 0.004124897 0.0034951312 -0.0021321313
000150 3a bb 0b 3b 24 33 28 ba 60 52 a2 3a b0 66 23 bb
       0.0021321313 -0.0006416312 0.0012384169 -0.0024933033
000160 90 9a b7 38 90 9a b7 b8 fc 6f 07 ba 52 90 34 bb
       8.7549095e-05 -8.7549095e-05 -0.0005166528 -0.0027551842
000170 18 83 b0 ba 15 5b af bb 15 5b af 3b 5c 72 ec ba
       -0.0013466803 -0.005351434 0.005351434 -0.0018039453
000180 e4 b8 02 bb 1c 80 48 bb 41 9a d7 bb 41 9a d7 3b
       -0.001994663 -0.0030593937 -0.006579668 0.006579668
000190 50 ce 31 3a 4e 18 0f 3b 32 83 76 3b 0c da e6 ba
       0.0006782757 0.0021834555 0.003761482 -0.001761259
0001a0 0c da e6 3a e2 94 82 39 53 84 0c 3b 94 f7 d6 3a
       0.001761259 0.0002490646 0.0021441176 0.0016400688
0001b0 02 5a 0e 3c 02 5a 0e bc ba 20 18 bb 36 57 4d bb
       0.008688452 -0.008688452 -0.0023212866 -0.00313325
0001c0 5d cb 4c 3b 19 10 09 bc 19 10 09 3c a0 6a 13 3b
       0.0031249144 -0.008365654 0.008365654 0.0022493973
0001d0 ec 70 17 3b 96 39 fa 3a ae 68 67 3c ae 68 67 bc
       0.0023108078 0.0019090648 0.014124079 -0.014124079
0001e0 12 57 e5 ba e4 b3 22 bb da 06 01 bb 45 c5 52 bc
       -0.0017497262 -0.0024826461 -0.0019687922 -0.0128644155
0001f0 45 c5 52 3c 0f b0 6f b7 da 91 a1 b8 82 1f 37 b9
       0.0128644155 -1.4286502e-05 -7.704245e-05 -0.00017463978
000200 21 e0 3a 3a 21 e0 3a ba 78 9f b6 bb dc 43 e6 bb
       0.0007128735 -0.0007128735 -0.0055732094 -0.0070271324
000210 e0 72 1b 39 84 9a 6b 3c 84 9a 6b bc 30 6f ab b9
       0.00014824746 0.014380101 -0.014380101 -0.00032698503
000220 00 87 6c 37 23 65 20 3b 69 05 05 bb 69 05 05 3b
       1.4098128e-05 0.0024474345 -0.0020297414 0.0020297414
000230 81 38 05 3b 22 5c 43 3b a5 44 e8 3a 5c d3 61 3b
       0.0020327868 0.0029809554 0.0017720653 0.0034458255
000240 5c d3 61 bb 9a 67 02 3c b6 73 fe 3b 5e e0 13 3c
       -0.0034458255 0.007959271 0.0077652587 0.009025661
000250 d3 d7 da 3b d3 d7 da bb
       0.0066785603 -0.0066785603

exp_avg_sq f4 [30, 5]
000000 03 1b 89 38 66 4a a3 38 0b c9 87 38 c0 fc 5d 38
       6.5377004e-05 7.7863035e-05 6.474749e-05 5.2925898e-05
000010 c0 fc 5d 38 4d 8b 84 39 14 e4 bd 39 55 1d 77 39
       5.2925898e-05 0.0002528079 0.0003621882 0.00023566683
000020 32 b4 e1 39 32 b4 e1 39 69 87 d3 31 10 fc 8b 33
       0.000430496 0.000430496 6.1563026e-09 6.518542e-08
000030 0a 49 4b 33 c3 b7 81 3c c3 b7 81 3c 07 84 93 38
       4.733105e-08 0.015834695 0.015834695 7.034098e-05
000040 5c 1c 90 38 4b cc 01 39 74 69 5c 39 74 69 5c 39
       6.8717374e-05 0.00012378504 0.0002102012 0.0002102012
000050 54 2f db 3a 88 94 0b 3b c0 c1 a4 3a 31 32 c2 3a
       0.0016722479 0.0021298248 0.0012569949 0.0014815984
000060 31 32 c2 3a c0 b3 0a 36 ff b1 b3 3a 86 e0 19 3a
       0.0014815984 2.066823e-06 0.0013709663 0.00058699434
000070 e5 b9 7d 3b e5 b9 7d 3b 45 6f 8d 39 5d a2 9d 39
       0.0038715538 0.0038715538 0.00026976518 0.00030066344
000080 13 a2 c4 39 12 4a f4 39 12 4a f4 39 00 00 00 00
       0.00037504788 0.00046594493 0.00046594493 0.0
000090 00 00 00 00 00 00 00 00 00 00 00 00 00 00 00 00
       0.0 0.0 0.0 0.0
0000a0 49 ce 09 3a c4 b2 c9 39 ce af 26 3a bc 2e b8 3a
       0.0005256874 0.00038470898 0.00063585944 0.0014052014
0000b0 bc 2e b8 3a ef 2a 14 39 6a f5 1b 39 0c e1 40 39
       0.0014052014 0.00014130374 0.00014873376 0.00018394383
0000c0 72 59 d6 39 72 59 d6 39 00 00 00 00 00 00 00 00
       0.00040883903 0.00040883903 0.0 0.0
0000d0 00 00 00 00 00 00 00 00 00 00 00 00 39 bd 9e 38
       0.0 0.0 0.0 7.5692726e-05
0000e0 1f 3b bf 38 1b 26 ba 38 80 89 5d 39 80 89 5d 39
       9.118602e-05 8.876269e-05 0.00021127425 0.00021127425
0000f0 00 00 00 00 00 00 00 00 00 00 00 00 00 00 00 00
       0.0 0.0 0.0 0.0
000100 00 00 00 00 18 6c 8b 39 ae 2c a9 39 68 dd 86 39
       0.0 0.00026592682 0.0003226748 0.00025723432
000110 44 67 94 39 44 67 94 39 e5 88 9c 38 a5 72 cc 38
       0.000283057 0.000283057 7.464158e-05 9.748832e-05
000120 ad 7f 5d 38 e3 13 c8 38 e3 13 c8 38 d1 93 ae 38
       5.2809413e-05 9.540447e-05 9.540447e-05 8.3244995e-05
000130 74 70 dc 38 96 65 45 38 29 45 c8 38 29 45 c8 38
       0.000105113635 4.706307e-05 9.549625e-05 9.549625e-05
000140 1c 4b c2 38 fb 13 a7 38 52 3b 77 39 58 94 ed 39
       9.264631e-05 7.966902e-05 0.00023577854 0.00045314687
000150 58 94 ed 39 24 aa 0a 39 81 34 4a 39 94 25 ff 38
       0.00045314687 0.00013224088 0.0001928378 0.00012166347
000160 cc 4c df 38 cc 4c df 38 af 0c 8a 38 b3 fc 9d 38
       0.00010647773 0.00010647773 6.582715e-05 7.533412e-05
000170 33 0b e3 38 f7 2f 0c 39 f7 2f 0c 39 91 b7 57 39
       0.000108262895 0.00013369309 0.00013369309 0.00020572382
000180 b9 09 8d 39 69 4d 3a 39 6b 97 df 39 6b 97 df 39
       0.0002690086 0.0001776718 0.0004264669 0.0004264669
000190 46 6e cc 38 62 f7 d6 38 b1 fb 65 39 a0 e2 ce 39
       9.748018e-05 0.00010250394 0.00021932904 0.0003946023
0001a0 a0 e2 ce 39 eb 57 4d 38 34 7e 7f 38 08 6a f2 39
       0.0003946023 4.895769e-05 6.0914273e-05 0.00046236836
0001b0 86 b5 a1 39 86 b5 a1 39 ba 60 92 39 75 15 a0 39
       0.00030843558 0.00030843558 0.00027919357 0.00030533565
0001c0 d8 09 0e 3a b2 d7 48 3a b2 d7 48 3a 75 49 d1 38
       0.0005418337 0.00076615356 0.00076615356 9.979579e-05
0001d0 ac 3f 02 39 6c 8a b3 39 e6 bf 2d 3a e6 bf 2d 3a
       0.00012421486 0.00034244673 0.00066280214 0.00066280214
0001e0 7c 45 de 38 15 01 f4 38 41 45 b8 39 72 8b 7a 3a
       0.000105987274 0.00011635028 0.00035146813 0.0009557522
0001f0 72 8b 7a 3a 68 97 0d 33 b9 38 ca 34 80 3b 56 36
       0.0009557522 3.2966824e-08 3.7666703e-07 3.1923119e-06
000200 3d 77 e2 37 3d 77 e2 37 1c e5 fe 39 b2 5b 0c 3b
       2.6996824e-05 2.6996824e-05 0.00048617355 0.002141696
000210 3f 2f 54 35 ef 78 dd 3a ef 78 dd 3a c7 a7 57 39
       7.9044906e-07 0.0016897003 0.0016897003 0.000205665
000220 0a 0f 82 39 c5 02 aa 39 ef ae 81 39 ef ae 81 39
       0.00024806737 0.0003242699 0.00024735133 0.00024735133
000230 31 5c 0d 38 c3 6c 13 38 86 cb 0b 38 81 72 60 38
       3.370288e-05 3.5148823e-05 3.332973e-05 5.35124e-05
000240 81 72 60 38 fb 71 10 3b b4 d3 81 3b ba b6 32 3b
       5.35124e-05 0.0022040594 0.0039620046 0.0027269558
000250 79 9e 4d 3a 79 9e 4d 3a
       0.00078437437 0.00078437437

exp_avg f4 [30]
000000 7b 2c b6 ba a4 7c 34 bc 84 ba 05 3e 1e f5 2b bc
       -0.0013898754 -0.011016045 0.13059431 -0.010495452
000010 45 cb 00 3d bd ac 56 3d 7c 08 bc bc 00 00 00 00
       0.031443853 0.05241083 -0.022953264 0.0
000020 fc 56 30 3c 58 ed 54 3b 00 00 00 00 18 9b 1e 3c
       0.010762926 0.00324901 0.0 0.009680532
000030 00 00 00 00 3c c5 d1 bb 28 ec 86 39 80 01 ee b8
       0.0 -0.006401686 0.00025734422 -0.00011349004
000040 1c 89 10 bb 82 65 26 bb 06 87 05 bc d4 a8 58 bc
       -0.002205438 -0.0025390093 -0.008149868 -0.0132238455
000050 42 23 9e bb 9d e5 34 3c 18 c4 52 bc 92 c9 c7 3c
       -0.0048259804 0.011041072 -0.012864135 0.024388108
000060 38 15 ae bc 69 81 62 3a 53 b4 cd bc 60 37 2a b9
       -0.021250352 0.00086404994 -0.0251104 -0.00016233092
000070 87 b2 c7 3b 08 a6 17 3c
       0.00609428 0.0092558935

exp_avg_sq f4 [30]
000000 04 ff 96 39 6c 6c e5 3a bb 6b bc 3d 1f 13 26 3a
       0.0002880023 0.0017503626 0.092002355 0.0006335247
000010 90 fc 0a 3c 6b 5e db 3c ae a4 80 3b 00 00 00 00
       0.008483067 0.02677842 0.0039258813 0.0
000020 0e d1 0f 3b 20 7a d0 3a 00 00 00 00 83 4c 44 3a
       0.0021944675 0.0015905537 0.0 0.0007488208
000030 00 00 00 00 37 6c cd 3a 37 9e 11 3a df 99 d8 39
       0.0 0.0015672509 0.0005554887 0.00041313373
000040 39 ff 71 3b b1 53 25 3a 63 37 16 3a 8c d8 be 3a
       0.0036925806 0.00063067215 0.0005730299 0.0014560386
000050 1a bb 82 3b da 43 b0 3a 10 71 e0 3b 4f 71 47 3b
       0.0039895894 0.0013447956 0.0068494156 0.0030432527
000060 8e e0 d2 3b 0d 51 12 38 06 70 8f 3c 18 17 3e 3b
       0.0064354604 3.4884597e-05 0.017509472 0.0029005464
000070 53 89 33 39 10 ef a4 3b
       0.00017121928 0.0050333813

exp_avg f4 [20, 30]
000000 bc de c7 b9 0c c0 f3 ba f6 6a 4f b9 11 d0 00 bb
       -0.00038122188 -0.0018596663 -0.00019780904 -0.0019655267
000010 78 35 67 b9 6b 4e 3a bb 7e 15 a9 bb 00 00 00 00
       -0.00022049795 -0.0028428088 -0.005160033 0.0
000020 f0 52 11 ba 60 bb 45 ba 00 00 00 00 2e 9b ad ba
       -0.00055436697 -0.00075428747 0.0 -0.00132451
000030 00 00 00 00 b0 4d 84 ba 3c 04 4b bb 5f b4 90 bb
       0.0 -0.0010093953 -0.0030977866 -0.004416033
000040 44 83 a3 b9 e0 fb 60 b8 78 b0 55 bb 5f 0d 5a bb
       -0.00031187583 -5.364034e-05 -0.0032606404 -0.003327213
000050 d4 bd 67 3a a0 7c fc b9 70 f9 85 38 a0 b6 b8 b8
       0.0008840237 -0.00048158038 6.3883956e-05 -8.80782e-05
000060 60 c2 95 ba 91 95 15 b9 18 ad 00 b9 d9 45 57 3a
       -0.0011425726 -0.00014265465 -0.00012271514 0.0008212007
000070 53 f3 35 ba c1 e8 79 b9 04 00 00 00 04 00 00 80
       -0.000694086 -0.00023833198 6e-45 -6e-45
000080 04 00 00 80 04 00 00 00 00 00 00 00 04 00 00 80
       -6e-45 6e-45 0.0 -6e-45
000090 04 00 00 00 00 00 00 00 00 00 00 00 00 00 00 00
       6e-45 0.0 0.0 0.0
0000a0 00 00 00 00 04 00 00 00 00 00 00 00 04 00 00 00
       0.0 6e-45 0.0 6e-45
0000b0 04 00 00 00 04 00 00 00 04 00 00 00 00 00 00 00
       6e-45 6e-45 6e-45 0.0
0000c0 04 00 00 00 04 00 00 00 00 00 00 00 04 00 00 00
       6e-45 6e-45 0.0 6e-45
0000d0 04 00 00 00 04 00 00 80 04 00 00 00 04 00 00 80
       6e-45 -6e-45 6e-45 -6e-45
0000e0 04 00 00 00 00 00 00 00 04 00 00 00 04 00 00 00
       6e-45 0.0 6e-45 6e-45
0000f0 65 f2 b9 ba 86 e8 8d 3b 59 d2 19 3a bd 03 a7 3b
       -0.0014186619 0.0043306975 0.0005867831 0.005096881
000100 46 d8 0b 3b ad 04 d6 3b 10 f6 8e 3c 00 00 00 00
       0.0021338626 0.006531319 0.017451316 0.0
000110 a0 25 5d 39 b2 e6 1e 3b 00 00 00 00 9e f4 06 3b
       0.00021090219 0.0024246392 0.0 0.002059258
000120 00 00 00 00 a2 7b 9d 3a a7 cf dd 3b a1 f5 2a 3c
       0.0 0.0012014995 0.006769139 0.010434539
000130 6c 63 1d 3b 77 68 e5 ba 10 e9 0f 3c 5e 08 19 3c
       0.002401556 -0.0017502446 0.008783594 0.009340374
000140 12 dc 24 3a 22 1c b6 3a 42 89 e6 3a e0 4e a2 3a
       0.00062888965 0.0013893882 0.0017588513 0.0012383126
000150 e3 92 db 3b 82 c4 cd 39 61 8c ba 3a 83 ce d0 ba
       0.00670086 0.00039247057 0.001423251 -0.0015930686
000160 04 11 35 3a 9a 5a e0 39 60 24 8f b8 e4 b0 f0 ba
       0.00069071376 0.00042792113 -6.825547e-05 -0.0018363264
000170 32 fa f8 b8 d0 2e 2e ba 08 8e 1d 38 98 1b 1e bb
       -0.00011872164 -0.0006644549 3.7563994e-05 -0.0024125334
000180 97 04 3c bb 00 00 00 00 2f ef ee b9 7e 72 bb ba
       -0.002868926 0.0 -0.00045573103 -0.0014301089
000190 00 00 00 00 64 50 35 ba 00 00 00 00 32 cd 9f ba
       0.0 -0.0006916581 0.0 -0.001219189
0001a0 7c 18 11 bb fa d4 05 bb 3e 2f 7a ba 80 1f f0 37
       -0.0022139838 -0.0020421133 -0.0009543783 2.8624898e-05
0001b0 70 46 8f ba c2 43 d5 ba 98 ec 9c ba ee 0d c5 b9
       -0.0010931026 -0.0016270804 -0.0011972366 -0.00037585146
0001c0 a0 15 f7 b9 d9 45 db ba 02 5a ad ba 58 8e cb b8
       -0.00047127623 -0.001672919 -0.0013225677 -9.706308e-05
0001d0 3b 5e ac b9 f4 90 0c ba 07 86 0f ba 54 4c 2e 38
       -0.00032876604 -0.0005362176 -0.0005474989 4.155592e-05
0001e0 98 db d9 3a 1c a6 a4 3b c0 02 a7 39 ca 51 26 3b
       0.001662123 0.0050246846 0.0003185477 0.002537834
0001f0 e0 3c ae b8 49 9d b1 3b 4d d8 e7 3b 00 00 00 00
       -8.3083054e-05 0.005420361 0.0070753456 0.0
000200 69 c7 9e 3a 5e 3f 4f 3b 00 00 00 00 d4 2a 5a 3b
       0.0012113872 0.0031623463 0.0 0.0033289688
000210 00 00 00 00 b6 69 78 3b fb a8 e2 3b 10 e9 f2 3b
       0.0 0.0037904806 0.0069171167 0.007413037
000220 09 d9 ed 3a f6 27 a5 3a 74 d4 81 3b b7 28 a8 3b
       0.0018146347 0.001260041 0.003962094 0.0051318067
000230 01 c3 3c 3a 5a 06 74 3a be 67 5a 3a a5 88 41 3b
       0.00072006887 0.0009308808 0.0008331499 0.002953091
000240 f4 03 ea 3a b0 99 8e 39 74 b2 de 39 d9 ae df 39
       0.0017853961 0.00027198857 0.00042476098 0.00042664146
000250 f4 40 10 3b ec 4e 58 39 e4 f3 45 b9 20 41 49 b8
       0.0022011371 0.00020628766 -0.0001887824 -4.7982787e-05
000260 d3 79 ba 37 10 29 4b 3a c1 4c e4 b8 0c 7a 80 3a
       2.2229657e-05 0.0007749954 -0.00010886184 0.0009801998
000270 b6 0c de 3a 00 00 00 00 31 0d 0a b8 b4 b0 26 b9
       0.0016941044 0.0 -3.291405e-05 -0.0001589682
000280 00 00 00 00 58 83 a3 b9 00 00 00 00 7a b9 22 b9
       0.0 -0.0003118764 0.0 -0.0001551862
000290 82 97 7c 39 40 b0 6f 3a 0b f8 8b b9 20 c2 0a ba
       0.00024089034 0.000914339 -0.00026696952 -0.0005293209
0002a0 75 e7 a6 3a 03 fc 60 3a 28 a5 f5 b9 b8 e8 84 39
       0.0012733774 0.00085824745 -0.00046853092 0.0002535039
0002b0 6f c5 d9 b9 82 33 fa b9 de c9 f3 39 c6 79 2b 39
       -0.00041536565 -0.00047722092 0.00046498975 0.00016353195
0002c0 70 55 03 b8 aa b3 03 ba 24 a7 66 b9 64 1f e0 37
       -3.1312404e-05 -0.00050240254 -0.00021996774 2.6717498e-05
0002d0 ae 12 82 3a ac cd 9e ba ba a4 e9 b8 00 e8 b6 39
       0.000992378 -0.0012115738 -0.000111409885 0.000348866
0002e0 19 e2 a9 39 3d 96 25 bb 2c 97 e9 ba 00 00 00 00
       0.00032402648 -0.002526655 -0.0017821542 0.0
0002f0 93 90 90 b9 00 16 b2 ba 00 00 00 00 6c ac 5c 3a
       -0.00027573536 -0.0013586879 0.0 0.0008418027
000300 00 00 00 00 d8 a7 0d ba de 79 88 ba 10 c2 75 b9
       0.0 -0.0005403734 -0.0010412296 -0.00023437315
000310 8e 8d 0e ba 5e d6 a6 3a b0 2e 1d 3a 3c d7 e0 b9
       -0.00054379634 0.0012728681 0.00059960317 -0.00042884971
000320 a5 23 02 bb 84 27 87 b9 80 5b e5 37 b2 30 f9 ba
       -0.0019857672 -0.00025778648 2.7341535e-05 -0.0019011705
000330 d4 9c d2 ba 8a df 6e b8 4a b6 10 ba ee 12 15 ba
       -0.0016068467 -5.695181e-05 -0.0005520327 -0.00056867197
000340 80 64 69 39 d0 ef 77 39 ec 85 0f ba 7a 93 5c bb
       0.00022258051 0.00023645093 -0.0005474973 -0.0033657239
000350 00 23 37 b9 e7 00 83 bb 1c 64 38 bb 1b 2d 28 bb
       -0.00017465279 -0.0039979103 -0.0028135842 -0.002566165
000360 70 0c 61 bc 00 00 00 00 04 00 00 00 91 f1 fa b9
       -0.0137358755 0.0 6e-45 -0.00047863697
000370 00 00 00 00 e2 a4 80 bb 00 00 00 00 16 64 66 ba
       0.0 -0.0039259056 0.0 -0.00087887177
000380 b0 d9 a0 bb 0c 8b 0a bc 74 ee 7c bb 0a c0 db ba
       -0.004908763 -0.008456003 -0.0038594278 -0.0016765606
000390 20 31 f8 bb af 4a 09 bc 21 c1 29 ba f4 ab ab ba
       -0.0075742155 -0.008379622 -0.0006475617 -0.0013097511
0003a0 f7 cc 7e bb 30 24 0f ba e7 4c b3 bb dc f5 b9 b9
       -0.0038879493 -0.00054604094 -0.005471814 -0.0003546913
0003b0 88 0f a8 ba 54 57 0f b9 be 42 d1 ba cc b0 4d ba
       -0.0012822011 -0.00013670075 -0.0015965325 -0.0007846474
0003c0 b6 e4 0c 3b 04 b1 3a 3b 04 00 00 80 28 21 ec 39
       0.0021498627 0.0028486857 -6e-45 0.0004503813
0003d0 ee bd 8a 3a 60 2d 57 b9 54 1b 24 3b 00 00 00 00
       0.0010585168 -0.00020520901 0.0025040703 0.0
0003e0 8d 45 2e 3a 65 60 ec 3a 00 00 00 00 45 1d 94 3b
       0.0006647937 0.0018034099 0.0 0.0045200908
0003f0 00 00 00 00 d9 00 19 3b 91 60 85 3b 2a 2a 8d 3b
       0.0 0.0023346453 0.0040703495 0.004308005

exp_avg_sq f4 [20, 30]
000000 ba 85 35 38 5e cf 26 39 8a 4e 13 34 c4 28 48 37
       4.3278305e-05 0.00015908244 1.3719014e-07 1.193042e-05
000010 69 0b af 38 e0 ef d4 38 0e 81 ad 39 00 00 00 00
       8.3467756e-05 0.00010153628 0.00033093285 0.0
000020 64 aa 55 36 73 93 c6 38 00 00 00 00 42 82 94 39
       3.1838654e-06 9.46884e-05 0.0 0.0002832581
000030 00 00 00 00 77 4d d4 38 c4 49 48 39 2d 43 43 39
       0.0 0.00010123377 0.00019100966 0.00018621674
000040 03 75 a9 39 9f c1 53 39 c3 8d 36 38 b6 3c 27 39
       0.00032321372 0.00020194658 4.3524207e-05 0.00015948978
000050 b2 69 73 39 e3 0a 09 36 e1 44 c0 39 82 ac 75 39
       0.0002321366 2.0420928e-06 0.00036672413 0.00023429285
000060 d9 f7 09 39 e4 8f 4f 34 11 8f 2f 37 91 c1 31 39
       0.00013157669 1.9330724e-07 1.0464123e-05 0.00016952145
000070 7f 5c a8 38 e9 bb cc 36 7d f7 ea 26 f5 42 3b 22
       8.028093e-05 6.1015494e-06 1.6304094e-15 2.5378673e-18
000080 26 96 86 23 aa d3 c2 26 00 00 00 00 28 64 6c 24
       1.45919e-17 1.3518826e-15 0.0 5.1259178e-17
000090 2f 36 50 26 00 00 00 00 00 00 00 00 00 00 00 00
       7.223793e-16 0.0 0.0 0.0
0000a0 00 00 00 00 6a 4e 72 25 00 00 00 00 ea e3 20 24
       0.0 2.1016722e-16 0.0 3.488752e-17
0000b0 a0 4b b7 26 d4 57 40 27 21 7e 9c 22 00 00 00 00
       1.2718674e-15 2.6692964e-15 4.241743e-18 0.0
0000c0 2a 8a e3 26 2f 1b fd 26 00 00 00 00 06 ae e9 25
       1.5788739e-15 1.756277e-15 0.0 4.053698e-16
0000d0 18 ff 29 25 aa 4d 26 21 09 32 41 25 d2 c0 73 23
       1.4744842e-16 5.6345775e-19 1.6757034e-16 1.3213888e-17
0000e0 d1 c4 7f 25 00 00 00 00 8f 2b 83 25 dd 8e 02 23
       2.2184408e-16 0.0 2.2754394e-16 7.077567e-18
0000f0 73 4e 0d 39 8f 47 59 3a d2 58 a6 35 29 65 ad 38
       0.00013476032 0.0008288556 1.2393814e-06 8.2681254e-05
000100 30 1c 44 39 d9 a3 21 3a f6 ac e8 3a 00 00 00 00
       0.00018702517 0.0006166078 0.0017751742 0.0
000110 2a 9c 18 36 37 d4 bf 39 00 00 00 00 91 b5 78 3a
       2.2740664e-06 0.0003658847 0.0 0.0009487505
000120 00 00 00 00 eb 26 d7 39 e1 2e 9f 3a a2 ab a9 3a
       0.0 0.00041036992 0.0012144708 0.0012944827
000130 93 85 6b 3a 85 72 f8 39 4f 02 90 39 0b 83 7f 3a
       0.00089844427 0.0004738757 0.0002746754 0.0009747005
000140 94 18 0f 3a 35 57 8a 37 97 69 4e 3a 0a c6 42 3a
       0.00054586795 1.649149e-05 0.00078740105 0.0007430023
000150 04 de 13 3a bf a8 d0 35 86 81 63 38 c7 d5 89 39
       0.0005640688 1.5546319e-06 5.4241646e-05 0.00026289953
000160 68 48 95 39 ca 86 d5 37 19 d0 8b 37 75 ed a5 38
       0.00028473441 2.5454345e-05 1.6666994e-05 7.912043e-05
000170 31 44 c6 33 fc 42 8b 36 ec eb 8a 36 b5 e4 60 38
       9.2324974e-08 4.150321e-06 4.1401854e-06 5.361876e-05
000180 6d 55 58 38 00 00 00 00 a6 70 b1 35 dd 2a 52 38
       5.1577972e-05 0.0 1.3220313e-06 5.010782e-05
000190 00 00 00 00 68 73 85 38 00 00 00 00 e0 75 73 38
       0.0 6.36343e-05 0.0 5.8045494e-05
0001a0 8c b7 e0 38 4c 4e a7 38 49 42 54 38 1c 24 09 38
       0.000107153406 7.9777645e-05 5.060647e-05 3.2696975e-05
0001b0 5f 80 11 37 d2 a9 2d 38 6c 31 57 38 31 e6 bd 35
       8.672562e-06 4.140457e-05 5.1306022e-05 1.4148592e-06
0001c0 c3 92 1c 38 4a 35 bd 38 e6 d1 37 37 a8 92 a7 33
       3.732998e-05 9.022148e-05 1.0956521e-05 7.80322e-08
0001d0 06 89 e2 34 e6 9f 0d 38 e2 e1 d8 37 18 96 37 34
       4.2195478e-07 3.3765937e-05 2.5854391e-05 1.7097807e-07
0001e0 df fd b4 38 cf 8e aa 39 d4 72 b0 34 83 b2 e9 37
       8.630356e-05 0.00032531327 3.2866103e-07 2.785889e-05
0001f0 f9 a3 0e 39 7a 93 61 39 40 c0 12 3a 00 00 00 00
       0.0001360326 0.00021512611 0.00055981055 0.0
000200 67 fc f3 36 ac 13 58 39 00 00 00 00 b9 16 04 3a
       7.271348e-06 0.00020606694 0.0 0.00050387863
000210 00 00 00 00 af 56 69 39 59 79 d4 39 ce 3c c3 39
       0.0 0.00022252904 0.00040526202 0.000372386
000220 1c f2 0f 3a 3c 90 b8 39 ef 84 b0 38 14 d3 94 39
       0.0005491094 0.00035202678 8.417095e-05 0.00028386025
000230 22 36 da 39 32 0b cb 36 cb 3d 20 3a 21 eb f2 39
       0.00041620532 6.0511748e-06 0.00061127235 0.00046333022
000240 ff 39 59 39 1e cf f0 34 52 b4 8c 37 bc f6 a1 39
       0.00020716338 4.485418e-07 1.6773269e-05 0.00030892144
000250 76 7f 1e 39 2e a4 22 37 e5 cc 9c 35 68 4f 05 37
       0.00015115537 9.6941785e-06 1.1682538e-06 7.945906e-06
000260 ee 94 35 32 94 ef 9a 36 e9 a4 be 36 6d 48 85 36
       1.0569449e-08 4.617448e-06 5.6816393e-06 3.9721403e-06
000270 69 22 8b 38 00 00 00 00 ce 0b 63 33 14 cc b6 35
       6.634446e-05 0.0 5.2863292e-08 1.3619451e-06
000280 00 00 00 00 e8 40 93 37 00 00 00 00 e9 0e ac 35
       0.0 1.755399e-05 0.0 1.2819338e-06
000290 5f 57 03 37 d3 3c 93 37 93 aa 2c 38 4f af 91 37
       7.828551e-06 1.7552089e-05 4.1166855e-05 1.7366981e-05
0002a0 4a cb 59 37 f5 df e2 37 f6 48 fd 37 ba af b5 35
       1.298154e-05 2.7045588e-05 3.0193925e-05 1.3536694e-06
0002b0 88 cb 27 38 03 86 67 37 10 a8 1b 38 4e 3f 6b 34
       4.0005456e-05 1.3799875e-05 3.71114e-05 2.190911e-07
0002c0 f1 de 7f 36 ee 0a 4a 37 03 4b 88 36 56 4f b2 35
       3.812773e-06 1.2042683e-05 4.0618484e-06 1.3285123e-06
0002d0 c9 dd 71 38 93 26 9f 39 73 7a ae 34 b1 a4 12 37
       5.766543e-05 0.00030355583 3.249912e-07 8.740623e-06
0002e0 0c 1f f8 37 2e d2 66 39 5a 53 6e 39 00 00 00 00
       2.9578361e-05 0.00022012807 0.000227285 0.0
0002f0 9d bb 88 36 d9 ff 49 39 00 00 00 00 fe 21 85 39
       4.074957e-06 0.00019264164 0.0 0.00025393063
000300 00 00 00 00 5f d9 61 39 f5 5b ca 39 15 e7 8b 39
       0.0 0.00021538649 0.00038596956 0.00026684316
000310 ea bd 81 39 2d f5 15 39 7a 9a c8 37 a4 b1 23 39
       0.00024746294 0.00014301082 2.3913792e-05 0.00015611068
000320 ec 65 7a 39 8e 49 3d 36 ed d8 55 39 b0 47 c1 39
       0.00023879827 2.820601e-06 0.00020394074 0.0003686524
000330 0a 3b 99 38 b4 94 80 34 ae ad 89 36 c8 6f 19 39
       7.3066054e-05 2.3950054e-07 4.103137e-06 0.00014632859
000340 b4 4f cf 38 02 97 ff 35 6b ad ef 36 08 51 aa 38
       9.885375e-05 1.904293e-06 7.1429436e-06 8.121325e-05
000350 66 8c b4 34 16 f4 85 38 69 eb 49 38 46 c9 70 38
       3.3629766e-07 6.387399e-05 4.8141377e-05 5.740791e-05
000360 e0 fd 1d 3a 00 00 00 00 da ad 1b 2b 24 df db 36
       0.0006026905 0.0 5.530833e-13 6.5526856e-06
000370 00 00 00 00 12 f9 c5 38 00 00 00 00 cc 52 40 37
       0.0 9.440085e-05 0.0 1.1463369e-05
000380 ae 23 4e 39 1e dd c0 39 6e 2f 7c 38 48 14 e3 37
       0.00019658983 0.0003678584 6.0125654e-05 2.7069953e-05
000390 6c eb 48 39 86 67 8d 39 0e bd b2 36 c8 88 58 37
       0.00019161188 0.00026970747 5.3268222e-06 1.290645e-05
0003a0 e4 01 8e 38 ba 4a 09 37 23 d2 c7 38 58 b3 b7 35
       6.77144e-05 8.183235e-06 9.5282005e-05 1.3686758e-06
0003b0 a6 91 67 37 e8 73 1f 36 d4 6e a9 37 cd c9 88 36
       1.3802584e-05 2.3760313e-06 2.0197978e-05 4.0766085e-06
0003c0 d4 32 95 37 8d 43 36 38 93 c7 1e 28 a5 15 24 37
       1.7785853e-05 4.3455093e-05 8.814038e-15 9.780201e-06
0003d0 6a 89 c4 36 b2 50 12 35 c3 fc 8d 38 00 00 00 00
       5.8572523e-06 5.4506665e-07 6.7704845e-05 0.0
0003e0 0b 4d d0 35 55 53 9b 36 00 00 00 00 19 d7 ad 38
       1.551963e-06 4.629061e-06 0.0 8.289348e-05
0003f0 00 00 00 00 79 7d 8d 37 63 b0 ab 38 32 f7 fb 38
       0.0 1.6866938e-05 8.18677e-05 0.000120146564

exp_avg f4 [20]
000000 f4 49 8d bb 04 00 00 00 5b c6 62 3c 0b 54 6a bb
       -0.0043117944 6e-45 0.013841237 -0.003575566
000010 aa c6 0d 3c 49 09 58 3a c9 51 44 bb 76 72 19 bc
       0.008653322 0.00082411297 -0.0029955974 -0.0093656685
000020 56 52 71 3b 04 00 00 00 aa 06 c8 bb 50 1b 78 bb
       0.0036822758 6e-45 -0.00610431 -0.0037858076
000030 08 51 02 3c 18 bb c0 bb c8 32 a6 bb 04 00 00 00
       0.00795389 -0.0058816783 -0.0050719716 6e-45
000040 a8 29 b8 3a d9 13 2f 3c 04 00 00 00 3e 11 a6 bb
       0.00140505 0.010685884 6e-45 -0.0050679734

exp_avg_sq f4 [20]
000000 e3 b7 c3 39 a5 08 ba 26 dd 79 11 3b de ae 20 39
       0.00037330305 1.2908686e-15 0.002219788 0.00015323932
000010 94 03 3f 3a f7 de 12 38 d1 79 1f 3a f6 a7 cd 39
       0.0007286605 3.5016765e-05 0.0006083521 0.00039225788
000020 3c 0f a0 38 c0 98 10 28 9a 46 df 39 52 e9 22 39
       7.632232e-05 8.026728e-15 0.00042586477 0.00015536443
000030 03 8f b7 3b 94 a5 82 39 f6 5a c7 39 82 f1 e2 27
       0.005601765 0.00024918898 0.0003802401 6.2989444e-15
000040 95 bb cb 36 25 bd 1c 3a 26 5c de 28 2c 56 fd 39
       6.071709e-06 0.00059791125 2.4686914e-14 0.00048320123

exp_avg f4 [3, 20]
000000 5a 1d 21 3c 04 00 00 00 1c 97 86 3a 5e 7d a3 3b
       0.009833658 6e-45 0.0010268423 0.00498931
000010 15 65 2d 3b ad 65 b5 38 89 8d 51 3b 42 6d 20 3b
       0.0026457955 8.649691e-05 0.003197523 0.0024479185
000020 ac 09 d0 39 00 00 00 00 c2 62 87 3b c5 21 b5 3b
       0.00039680058 0.0 0.004131646 0.0055277073
000030 e8 8b 0c 38 01 07 73 3a f5 f8 53 3c 04 00 00 00
       3.35089e-05 0.0009270758 0.012937774 6e-45
000040 26 2e 56 39 8c 87 7e 3a 04 00 00 80 50 b3 bb 3b
       0.00020425822 0.0009709529 -6e-45 0.005728163
000050 50 71 e0 3a 00 00 00 00 5a 85 3a 3c 70 6f ef 3a
       0.0017123614 0.0 0.011384333 0.0018267464
000060 55 f5 51 3b 89 19 a9 b8 44 c0 a0 3b 4a 59 36 3b
       0.0032037098 -8.063304e-05 0.0049057323 0.0027824217
000070 ee 6d 91 ba 00 00 00 00 44 19 d2 3a e0 11 e9 3a
       -0.0011095384 0.0 0.0016029258 0.0017781816
000080 e7 d3 8a 3a 42 da 5e 3a a0 9c f7 3a 04 00 00 00
       0.0010591716 0.0008501151 0.0018891282 6e-45
000090 fc 37 5c b9 e2 79 49 3b 04 00 00 00 bc 67 1e 3b
       -0.00021001691 0.0030742814 6e-45 0.0024170717
0000a0 39 d6 b4 3b 04 00 00 00 2f 1c d2 3b 00 7d fb b7
       0.0055187014 6e-45 0.006412051 -2.997974e-05
0000b0 0c 69 ef 3a 26 e0 e9 b8 05 ff 39 3b 8d 50 d6 3b
       0.0018265559 -0.00011152057 0.0028380763 0.006540364
0000c0 16 ec ff 39 04 00 00 00 3e 37 9d 3b 73 26 21 3b
       0.00048813288 6e-45 0.004797845 0.0024589568
0000d0 b9 5c 96 39 44 3b 7e 3a 9b c0 d8 3b 04 00 00 00
       0.00028679313 0.00096981623 0.0066147572 6e-45
0000e0 d1 94 08 38 5c ba e4 3a 04 00 00 00 78 b2 af 3b
       3.2563523e-05 0.0017450559 6e-45 0.0053618513

exp_avg_sq f4 [3, 20]
000000 37 46 8d 39 2e 22 7f 25 36 d1 2a 38 28 dd 7c 38
       0.0002694593 2.2129305e-16 4.0726e-05 6.028745e-05
000010 a6 a3 7c 37 0a b9 17 35 9c 50 4f 38 6f 84 a7 38
       1.5058473e-05 5.652115e-07 4.942772e-05 7.987848e-05
000020 0d 65 f3 36 00 00 00 00 6c 19 c5 38 5d d7 cc 38
       7.253728e-06 0.0 9.398427e-05 9.7675926e-05
000030 67 57 39 35 1b c3 42 37 84 d2 01 3a 67 74 3d 26
       6.904506e-07 1.1608728e-05 0.0004952329 6.57303e-16
000040 01 76 f2 34 71 a1 06 36 c5 43 9c 22 97 4c 1e 39
       4.5161872e-07 2.0061527e-06 4.235564e-18 0.00015096586
000050 a4 35 b6 3b 00 00 00 00 b8 f4 ac 3a 37 37 a9 3a
       0.0055605937 0.0 0.001319549 0.0012910132
000060 31 57 b8 39 04 18 77 35 73 8a 98 39 b9 63 03 39
       0.00035160178 9.204962e-07 0.00029094852 0.00012530283
000070 2a 56 e1 37 00 00 00 00 07 c6 9c 3a 64 73 00 3b
       2.6862213e-05 0.0 0.0011960872 0.0019600028
000080 d6 db 8f 38 83 72 f3 37 85 5f 15 3c e8 13 6f 26
       6.859719e-05 2.9021181e-05 0.009117012 8.294676e-16
000090 ed e9 b2 35 1d 63 d9 38 fa 36 29 22 ad dc 16 3b
       1.3330115e-06 0.000103658276 2.2932875e-18 0.0023019717
0000a0 5a bf f7 3b 24 6c 38 27 63 12 a1 3a 97 60 2d 3b
       0.0075606527 2.5593753e-15 0.0012288805 0.0026455277
0000b0 41 72 04 3a 52 49 06 38 81 50 1e 3b 3b a1 b4 39
       0.00050524255 3.2016374e-05 0.002415687 0.000344524
0000c0 c7 fe 90 37 60 a6 84 25 32 bd f1 3a 46 42 6c 3b
       1.7284778e-05 2.301109e-16 0.0018443225 0.0036050244
0000d0 69 bc 0e 37 2c e7 1f 38 9e f9 7e 3c ee a3 99 2a
       8.507727e-06 3.812385e-05 0.015562443 2.729201e-13
0000e0 6c 9b 97 36 e6 0b fb 38 f1 20 80 28 26 27 34 3b
       4.518244e-06 0.00011970829 1.422514e-14 0.0027489155

exp_avg f4 [3]
000000 da f9 61 3b 45 18 ad 3b 21 e1 81 3b
       0.0034481199 0.005282434 0.003963605

exp_avg_sq f4 [3]
000000 07 ca 33 38 0d 7f 8e 3a c1 52 ac 3a
       4.286508e-05 0.0010871604 0.0013147221
